…
xamples/two_dimensional_rbc/RBC_A4Ra1e6Pr10_fs_minmax.hdf5', 'base_dir': '/usr/scratch4/flhe4523/rbc2d/A4Ra1e6Pr10_fs/ae/beta00/', 'use_cuda': True}
batch_size 128, 
             num_epochs 4000, 
             encoding_dim 32, 
             init. learning_rate 1.00e-05, 
             learning_rate lambda 1.000, 
             weight_decay 1.00e-06,
             p_conv 0.15
----------------------------------------------------------------
        Layer (type)               Output Shape         Param #
================================================================
            Conv2d-1           [-1, 3, 32, 128]              84
               ELU-2           [-1, 3, 32, 128]               0
               ELU-3           [-1, 3, 32, 128]               0
            Conv2d-4           [-1, 3, 32, 128]              84
               ELU-5           [-1, 3, 32, 128]               0
               ELU-6           [-1, 3, 32, 128]               0
            Conv2d-7           [-1, 3, 32, 128]              84
               ELU-8           [-1, 3, 32, 128]               0
               ELU-9           [-1, 3, 32, 128]               0
           Conv2d-10           [-1, 4, 32, 128]             112
              ELU-11           [-1, 4, 32, 128]               0
              ELU-12           [-1, 4, 32, 128]               0
        MaxPool2d-13            [-1, 4, 32, 64]               0
      BatchNorm2d-14            [-1, 4, 32, 64]               8
             Down-15            [-1, 4, 32, 64]               0
          Dropout-16            [-1, 4, 32, 64]               0
           Conv2d-17            [-1, 4, 32, 64]             148
              ELU-18            [-1, 4, 32, 64]               0
              ELU-19            [-1, 4, 32, 64]               0
           Conv2d-20            [-1, 4, 32, 64]             148
              ELU-21            [-1, 4, 32, 64]               0
              ELU-22            [-1, 4, 32, 64]               0
           Conv2d-23            [-1, 4, 32, 64]             148
              ELU-24            [-1, 4, 32, 64]               0
              ELU-25            [-1, 4, 32, 64]               0
           Conv2d-26            [-1, 8, 32, 64]             296
              ELU-27            [-1, 8, 32, 64]               0
              ELU-28            [-1, 8, 32, 64]               0
        MaxPool2d-29            [-1, 8, 32, 32]               0
      BatchNorm2d-30            [-1, 8, 32, 32]              16
             Down-31            [-1, 8, 32, 32]               0
          Dropout-32            [-1, 8, 32, 32]               0
           Conv2d-33            [-1, 8, 32, 32]             584
              ELU-34            [-1, 8, 32, 32]               0
              ELU-35            [-1, 8, 32, 32]               0
           Conv2d-36            [-1, 8, 32, 32]             584
              ELU-37            [-1, 8, 32, 32]               0
              ELU-38            [-1, 8, 32, 32]               0
           Conv2d-39            [-1, 8, 32, 32]             584
              ELU-40            [-1, 8, 32, 32]               0
              ELU-41            [-1, 8, 32, 32]               0
           Conv2d-42           [-1, 16, 32, 32]           1,168
              ELU-43           [-1, 16, 32, 32]               0
              ELU-44           [-1, 16, 32, 32]               0
        MaxPool2d-45           [-1, 16, 32, 16]               0
      BatchNorm2d-46           [-1, 16, 32, 16]              32
             Down-47           [-1, 16, 32, 16]               0
          Dropout-48           [-1, 16, 32, 16]               0
           Conv2d-49           [-1, 16, 32, 16]           2,320
              ELU-50           [-1, 16, 32, 16]               0
              ELU-51           [-1, 16, 32, 16]               0
           Conv2d-52           [-1, 16, 32, 16]           2,320
              ELU-53           [-1, 16, 32, 16]               0
              ELU-54           [-1, 16, 32, 16]               0
           Conv2d-55           [-1, 16, 32, 16]           2,320
              ELU-56           [-1, 16, 32, 16]               0
              ELU-57           [-1, 16, 32, 16]               0
           Conv2d-58           [-1, 32, 32, 16]           4,640
              ELU-59           [-1, 32, 32, 16]               0
              ELU-60           [-1, 32, 32, 16]               0
        MaxPool2d-61            [-1, 32, 32, 8]               0
      BatchNorm2d-62            [-1, 32, 32, 8]              64
             Down-63            [-1, 32, 32, 8]               0
          Dropout-64            [-1, 32, 32, 8]               0
          Flatten-65                 [-1, 8192]               0
           Linear-66                   [-1, 32]         262,176
      BatchNorm1d-67                   [-1, 32]              64
          Dropout-68                   [-1, 32]               0
          Sigmoid-69                   [-1, 32]               0
           Linear-70                 [-1, 8192]         270,336
      BatchNorm1d-71                 [-1, 8192]          16,384
              ELU-72                 [-1, 8192]               0
          Dropout-73                 [-1, 8192]               0
             View-74            [-1, 32, 32, 8]               0
  ConvTranspose2d-75            [-1, 32, 32, 8]           9,248
              ELU-76            [-1, 32, 32, 8]               0
              ELU-77            [-1, 32, 32, 8]               0
  ConvTranspose2d-78            [-1, 32, 32, 8]           9,248
              ELU-79            [-1, 32, 32, 8]               0
              ELU-80            [-1, 32, 32, 8]               0
  ConvTranspose2d-81            [-1, 32, 32, 8]           9,248
              ELU-82            [-1, 32, 32, 8]               0
              ELU-83            [-1, 32, 32, 8]               0
  ConvTranspose2d-84            [-1, 16, 32, 8]           4,624
              ELU-85            [-1, 16, 32, 8]               0
              ELU-86            [-1, 16, 32, 8]               0
         Upsample-87           [-1, 16, 32, 16]               0
      BatchNorm2d-88           [-1, 16, 32, 16]              32
               Up-89           [-1, 16, 32, 16]               0
          Dropout-90           [-1, 16, 32, 16]               0
  ConvTranspose2d-91           [-1, 16, 32, 16]           2,320
              ELU-92           [-1, 16, 32, 16]               0
              ELU-93           [-1, 16, 32, 16]               0
  ConvTranspose2d-94           [-1, 16, 32, 16]           2,320
              ELU-95           [-1, 16, 32, 16]               0
              ELU-96           [-1, 16, 32, 16]               0
  ConvTranspose2d-97           [-1, 16, 32, 16]           2,320
              ELU-98           [-1, 16, 32, 16]               0
              ELU-99           [-1, 16, 32, 16]               0
 ConvTranspose2d-100            [-1, 8, 32, 16]           1,160
             ELU-101            [-1, 8, 32, 16]               0
             ELU-102            [-1, 8, 32, 16]               0
        Upsample-103            [-1, 8, 32, 32]               0
     BatchNorm2d-104            [-1, 8, 32, 32]              16
              Up-105            [-1, 8, 32, 32]               0
         Dropout-106            [-1, 8, 32, 32]               0
 ConvTranspose2d-107            [-1, 8, 32, 32]             584
             ELU-108            [-1, 8, 32, 32]               0
             ELU-109            [-1, 8, 32, 32]               0
 ConvTranspose2d-110            [-1, 8, 32, 32]             584
             ELU-111            [-1, 8, 32, 32]               0
             ELU-112            [-1, 8, 32, 32]               0
 ConvTranspose2d-113            [-1, 8, 32, 32]             584
             ELU-114            [-1, 8, 32, 32]               0
             ELU-115            [-1, 8, 32, 32]               0
 ConvTranspose2d-116            [-1, 4, 32, 32]             292
             ELU-117            [-1, 4, 32, 32]               0
             ELU-118            [-1, 4, 32, 32]               0
        Upsample-119            [-1, 4, 32, 64]               0
     BatchNorm2d-120            [-1, 4, 32, 64]               8
              Up-121            [-1, 4, 32, 64]               0
         Dropout-122            [-1, 4, 32, 64]               0
 ConvTranspose2d-123            [-1, 4, 32, 64]             148
             ELU-124            [-1, 4, 32, 64]               0
             ELU-125            [-1, 4, 32, 64]               0
 ConvTranspose2d-126            [-1, 4, 32, 64]             148
             ELU-127            [-1, 4, 32, 64]               0
             ELU-128            [-1, 4, 32, 64]               0
 ConvTranspose2d-129            [-1, 4, 32, 64]             148
             ELU-130            [-1, 4, 32, 64]               0
             ELU-131            [-1, 4, 32, 64]               0
 ConvTranspose2d-132            [-1, 3, 32, 64]             111
             ELU-133            [-1, 3, 32, 64]               0
             ELU-134            [-1, 3, 32, 64]               0
        Upsample-135           [-1, 3, 32, 128]               0
     BatchNorm2d-136           [-1, 3, 32, 128]               6
              Up-137           [-1, 3, 32, 128]               0
         Dropout-138           [-1, 3, 32, 128]               0
 ConvTranspose2d-139           [-1, 3, 32, 128]              84
         Sigmoid-140           [-1, 3, 32, 128]               0
================================================================
Total params: 607,937
Trainable params: 607,937
Non-trainable params: 0
----------------------------------------------------------------
Input size (MB): 0.05
Forward/backward pass size (MB): 9.39
Params size (MB): 2.32
Estimated Total Size (MB): 11.76
----------------------------------------------------------------
None
Starting Training...
…
